…
I0628 08:00:26.659487 28673 net.cpp:294] The NetState phase (0) differed from the phase (1) specified by a rule in layer data
I0628 08:00:26.659498 28673 net.cpp:51] Initializing net from parameters: 
name: "simpleconv3"
state {
  phase: TRAIN
  level: 0
  stage: ""
}
layer {
  name: "data"
  type: "ImageData"
  top: "data"
  top: "label"
  include {
    phase: TRAIN
  }
  transform_param {
    mirror: true
    crop_size: 48
    mean_value: 104.008
    mean_value: 116.669
    mean_value: 122.675
    contrast_brightness_adjustment: true
    max_color_shift: 10
  }
  image_data_param {
    source: "train_shuffle.txt"
    batch_size: 96
    shuffle: true
  }
}
layer {
  name: "conv1"
  type: "Convolution"
  bottom: "data"
  top: "conv1"
  param {
    lr_mult: 1
    decay_mult: 1
  }
  param {
    lr_mult: 2
    decay_mult: 0
  }
  convolution_param {
    num_output: 12
    pad: 1
    kernel_size: 3
    stride: 2
    weight_filler {
      type: "xavier"
      std: 0.01
    }
    bias_filler {
      type: "constant"
      value: 0.2
    }
  }
}
layer {
  name: "conv1/bn"
  type: "BatchNorm"
  bottom: "conv1"
  top: "conv1"
  param {
    lr_mult: 0
    decay_mult: 0
  }
  param {
    lr_mult: 0
    decay_mult: 0
  }
  param {
    lr_mult: 0
    decay_mult: 0
  }
}
layer {
  name: "conv1/scale"
  type: "Scale"
  bottom: "conv1"
  top: "conv1"
  param {
    lr_mult: 1
    decay_mult: 0
  }
  param {
    lr_mult: 1
    decay_mult: 0
  }
  scale_param {
    filler {
      value: 1
    }
    bias_term: true
    bias_filler {
      value: 0
    }
  }
}
layer {
  name: "relu1"
  type: "ReLU"
  bottom: "conv1"
  top: "conv1"
}
layer {
  name: "conv2"
  type: "Convolution"
  bottom: "conv1"
  top: "conv2"
  param {
    lr_mult: 1
    decay_mult: 1
  }
  param {
    lr_mult: 2
    decay_mult: 0
  }
  convolution_param {
    num_output: 24
    pad: 1
    kernel_size: 3
    stride: 2
    weight_filler {
      type: "xavier"
      std: 0.1
    }
    bias_filler {
      type: "constant"
      value: 0.2
    }
  }
}
layer {
  name: "conv2/bn"
  type: "BatchNorm"
  bottom: "conv2"
  top: "conv2"
  param {
    lr_mult: 0
    decay_mult: 0
  }
  param {
    lr_mult: 0
    decay_mult: 0
  }
  param {
    lr_mult: 0
    decay_mult: 0
  }
}
layer {
  name: "conv2/scale"
  type: "Scale"
  bottom: "conv2"
  top: "conv2"
  param {
    lr_mult: 1
    decay_mult: 0
  }
  param {
    lr_mult: 1
    decay_mult: 0
  }
  scale_param {
    filler {
      value: 1
    }
    bias_term: true
    bias_filler {
      value: 0
    }
  }
}
layer {
  name: "relu2"
  type: "ReLU"
  bottom: "conv2"
  top: "conv2"
}
layer {
  name: "conv3"
  type: "Convolution"
  bottom: "conv2"
  top: "conv3"
  param {
    lr_mult: 1
    decay_mult: 1
  }
  param {
    lr_mult: 2
    decay_mult: 0
  }
  convolution_param {
    num_output: 48
    pad: 1
    kernel_size: 3
    stride: 2
    weight_filler {
      type: "xavier"
      std: 0.1
    }
    bias_filler {
      type: "constant"
      value: 0.2
    }
  }
}
layer {
  name: "conv3/bn"
  type: "BatchNorm"
  bottom: "conv3"
  top: "conv3"
  param {
    lr_mult: 0
    decay_mult: 0
  }
  param {
    lr_mult: 0
    decay_mult: 0
  }
  param {
    lr_mult: 0
    decay_mult: 0
  }
}
layer {
  name: "conv3/scale"
  type: "Scale"
  bottom: "conv3"
  top: "conv3"
  param {
    lr_mult: 1
    decay_mult: 0
  }
  param {
    lr_mult: 1
    decay_mult: 0
  }
  scale_param {
    filler {
      value: 1
    }
    bias_term: true
    bias_filler {
      value: 0
    }
  }
}
layer {
  name: "relu3"
  type: "ReLU"
  bottom: "conv3"
  top: "conv3"
}
layer {
  name: "ip1"
  type: "InnerProduct"
  bottom: "conv3"
  top: "ip1"
  param {
    lr_mult: 1
    decay_mult: 1
  }
  param {
    lr_mult: 2
    decay_mult: 0
  }
  inner_product_param {
    num_output: 128
    weight_filler {
      type: "xavier"
    }
    bias_filler {
      type: "constant"
      value: 0
    }
  }
}
layer {
  name: "ip2"
  type: "InnerProduct"
  bottom: "ip1"
  top: "ip2"
  param {
    lr_mult: 1
    decay_mult: 1
  }
  param {
    lr_mult: 2
    decay_mult: 1
  }
  inner_product_param {
    num_output: 2
    weight_filler {
      type: "xavier"
    }
    bias_filler {
      type: "constant"
      value: 0
    }
  }
}
layer {
  name: "loss"
  type: "SoftmaxWithLoss"
  bottom: "ip2"
  bottom: "label"
  top: "loss"
}
layer {
  name: "acc"
  type: "Accuracy"
  bottom: "ip2"
  bottom: "label"
  top: "acc"
}
I0628 08:00:26.659641 28673 layer_factory.hpp:77] Creating layer data
I0628 08:00:26.659680 28673 net.cpp:84] Creating Layer data
I0628 08:00:26.659687 28673 net.cpp:380] data -> data
I0628 08:00:26.659741 28673 net.cpp:380] data -> label
I0628 08:00:26.659898 28673 image_data_layer.cpp:43] Opening file train_shuffle.txt
I0628 08:00:26.659902 28673 io.cpp:296] Opening file train_shuffle.txt
I0628 08:00:26.660372 28673 io.cpp:321] Read 700 images with 1 labels
I0628 08:00:26.660378 28673 image_data_layer.cpp:61] Shuffling data
I0628 08:00:26.660392 28673 image_data_layer.cpp:71] A total of 700 images.
I0628 08:00:26.661073 28673 image_data_layer.cpp:98] output data size: 96,3,48,48
I0628 08:00:26.666893 28673 net.cpp:122] Setting up data
I0628 08:00:26.666908 28673 net.cpp:129] Top shape: 96 3 48 48 (663552)
I0628 08:00:26.666915 28673 net.cpp:129] Top shape: 96 1 1 1 (96)
I0628 08:00:26.666918 28673 net.cpp:137] Memory required for data: 2654592
I0628 08:00:26.666924 28673 layer_factory.hpp:77] Creating layer label_data_1_split
I0628 08:00:26.666934 28673 net.cpp:84] Creating Layer label_data_1_split
I0628 08:00:26.666937 28673 net.cpp:406] label_data_1_split <- label
I0628 08:00:26.666949 28673 net.cpp:380] label_data_1_split -> label_data_1_split_0
I0628 08:00:26.666956 28673 net.cpp:380] label_data_1_split -> label_data_1_split_1
I0628 08:00:26.667006 28673 net.cpp:122] Setting up label_data_1_split
I0628 08:00:26.667011 28673 net.cpp:129] Top shape: 96 1 1 1 (96)
I0628 08:00:26.667013 28673 net.cpp:129] Top shape: 96 1 1 1 (96)
I0628 08:00:26.667016 28673 net.cpp:137] Memory required for data: 2655360
I0628 08:00:26.667019 28673 layer_factory.hpp:77] Creating layer conv1
I0628 08:00:26.667030 28673 net.cpp:84] Creating Layer conv1
I0628 08:00:26.667033 28673 net.cpp:406] conv1 <- data
I0628 08:00:26.667038 28673 net.cpp:380] conv1 -> conv1
I0628 08:00:26.667205 28673 net.cpp:122] Setting up conv1
I0628 08:00:26.667210 28673 net.cpp:129] Top shape: 96 12 24 24 (663552)
I0628 08:00:26.667213 28673 net.cpp:137] Memory required for data: 5309568
I0628 08:00:26.667225 28673 layer_factory.hpp:77] Creating layer conv1/bn
I0628 08:00:26.667230 28673 net.cpp:84] Creating Layer conv1/bn
I0628 08:00:26.667233 28673 net.cpp:406] conv1/bn <- conv1
I0628 08:00:26.667237 28673 net.cpp:367] conv1/bn -> conv1 (in-place)
I0628 08:00:26.667377 28673 net.cpp:122] Setting up conv1/bn
I0628 08:00:26.667382 28673 net.cpp:129] Top shape: 96 12 24 24 (663552)
I0628 08:00:26.667387 28673 net.cpp:137] Memory required for data: 7963776
I0628 08:00:26.667392 28673 layer_factory.hpp:77] Creating layer conv1/scale
I0628 08:00:26.667397 28673 net.cpp:84] Creating Layer conv1/scale
I0628 08:00:26.667400 28673 net.cpp:406] conv1/scale <- conv1
I0628 08:00:26.667404 28673 net.cpp:367] conv1/scale -> conv1 (in-place)
I0628 08:00:26.667531 28673 layer_factory.hpp:77] Creating layer conv1/scale
I0628 08:00:26.667601 28673 net.cpp:122] Setting up conv1/scale
I0628 08:00:26.667621 28673 net.cpp:129] Top shape: 96 12 24 24 (663552)
I0628 08:00:26.667625 28673 net.cpp:137] Memory required for data: 10617984
I0628 08:00:26.667629 28673 layer_factory.hpp:77] Creating layer relu1
I0628 08:00:26.667634 28673 net.cpp:84] Creating Layer relu1
I0628 08:00:26.667636 28673 net.cpp:406] relu1 <- conv1
I0628 08:00:26.667640 28673 net.cpp:367] relu1 -> conv1 (in-place)
I0628 08:00:26.667644 28673 net.cpp:122] Setting up relu1
I0628 08:00:26.667647 28673 net.cpp:129] Top shape: 96 12 24 24 (663552)
I0628 08:00:26.667650 28673 net.cpp:137] Memory required for data: 13272192
I0628 08:00:26.667654 28673 layer_factory.hpp:77] Creating layer conv2
I0628 08:00:26.667659 28673 net.cpp:84] Creating Layer conv2
I0628 08:00:26.667661 28673 net.cpp:406] conv2 <- conv1
I0628 08:00:26.667665 28673 net.cpp:380] conv2 -> conv2
I0628 08:00:26.667834 28673 net.cpp:122] Setting up conv2
I0628 08:00:26.667838 28673 net.cpp:129] Top shape: 96 24 12 12 (331776)
I0628 08:00:26.667841 28673 net.cpp:137] Memory required for data: 14599296
I0628 08:00:26.667845 28673 layer_factory.hpp:77] Creating layer conv2/bn
I0628 08:00:26.667850 28673 net.cpp:84] Creating Layer conv2/bn
I0628 08:00:26.667852 28673 net.cpp:406] conv2/bn <- conv2
I0628 08:00:26.667855 28673 net.cpp:367] conv2/bn -> conv2 (in-place)
I0628 08:00:26.667949 28673 net.cpp:122] Setting up conv2/bn
I0628 08:00:26.667953 28673 net.cpp:129] Top shape: 96 24 12 12 (331776)
I0628 08:00:26.667958 28673 net.cpp:137] Memory required for data: 15926400
I0628 08:00:26.667961 28673 layer_factory.hpp:77] Creating layer conv2/scale
I0628 08:00:26.667966 28673 net.cpp:84] Creating Layer conv2/scale
I0628 08:00:26.667968 28673 net.cpp:406] conv2/scale <- conv2
I0628 08:00:26.667973 28673 net.cpp:367] conv2/scale -> conv2 (in-place)
I0628 08:00:26.667992 28673 layer_factory.hpp:77] Creating layer conv2/scale
I0628 08:00:26.668059 28673 net.cpp:122] Setting up conv2/scale
I0628 08:00:26.668066 28673 net.cpp:129] Top shape: 96 24 12 12 (331776)
I0628 08:00:26.668069 28673 net.cpp:137] Memory required for data: 17253504
I0628 08:00:26.668074 28673 layer_factory.hpp:77] Creating layer relu2
I0628 08:00:26.668082 28673 net.cpp:84] Creating Layer relu2
I0628 08:00:26.668085 28673 net.cpp:406] relu2 <- conv2
I0628 08:00:26.668088 28673 net.cpp:367] relu2 -> conv2 (in-place)
I0628 08:00:26.668095 28673 net.cpp:122] Setting up relu2
I0628 08:00:26.668098 28673 net.cpp:129] Top shape: 96 24 12 12 (331776)
I0628 08:00:26.668102 28673 net.cpp:137] Memory required for data: 18580608
I0628 08:00:26.668105 28673 layer_factory.hpp:77] Creating layer conv3
I0628 08:00:26.668112 28673 net.cpp:84] Creating Layer conv3
I0628 08:00:26.668115 28673 net.cpp:406] conv3 <- conv2
I0628 08:00:26.668119 28673 net.cpp:380] conv3 -> conv3
I0628 08:00:26.668336 28673 net.cpp:122] Setting up conv3
I0628 08:00:26.668342 28673 net.cpp:129] Top shape: 96 48 6 6 (165888)
I0628 08:00:26.668345 28673 net.cpp:137] Memory required for data: 19244160
I0628 08:00:26.668349 28673 layer_factory.hpp:77] Creating layer conv3/bn
I0628 08:00:26.668354 28673 net.cpp:84] Creating Layer conv3/bn
I0628 08:00:26.668356 28673 net.cpp:406] conv3/bn <- conv3
I0628 08:00:26.668360 28673 net.cpp:367] conv3/bn -> conv3 (in-place)
I0628 08:00:26.668722 28673 net.cpp:122] Setting up conv3/bn
I0628 08:00:26.668727 28673 net.cpp:129] Top shape: 96 48 6 6 (165888)
I0628 08:00:26.668749 28673 net.cpp:137] Memory required for data: 19907712
I0628 08:00:26.668756 28673 layer_factory.hpp:77] Creating layer conv3/scale
I0628 08:00:26.668784 28673 net.cpp:84] Creating Layer conv3/scale
I0628 08:00:26.668787 28673 net.cpp:406] conv3/scale <- conv3
I0628 08:00:26.668790 28673 net.cpp:367] conv3/scale -> conv3 (in-place)
I0628 08:00:26.668826 28673 layer_factory.hpp:77] Creating layer conv3/scale
I0628 08:00:26.668973 28673 net.cpp:122] Setting up conv3/scale
I0628 08:00:26.668977 28673 net.cpp:129] Top shape: 96 48 6 6 (165888)
I0628 08:00:26.668980 28673 net.cpp:137] Memory required for data: 20571264
I0628 08:00:26.669005 28673 layer_factory.hpp:77] Creating layer relu3
I0628 08:00:26.669032 28673 net.cpp:84] Creating Layer relu3
I0628 08:00:26.669055 28673 net.cpp:406] relu3 <- conv3
I0628 08:00:26.669059 28673 net.cpp:367] relu3 -> conv3 (in-place)
I0628 08:00:26.669064 28673 net.cpp:122] Setting up relu3
I0628 08:00:26.669066 28673 net.cpp:129] Top shape: 96 48 6 6 (165888)
I0628 08:00:26.669070 28673 net.cpp:137] Memory required for data: 21234816
I0628 08:00:26.669072 28673 layer_factory.hpp:77] Creating layer ip1
I0628 08:00:26.669076 28673 net.cpp:84] Creating Layer ip1
I0628 08:00:26.669080 28673 net.cpp:406] ip1 <- conv3
I0628 08:00:26.669083 28673 net.cpp:380] ip1 -> ip1
I0628 08:00:26.670171 28673 net.cpp:122] Setting up ip1
I0628 08:00:26.670176 28673 net.cpp:129] Top shape: 96 128 (12288)
I0628 08:00:26.670181 28673 net.cpp:137] Memory required for data: 21283968
I0628 08:00:26.670184 28673 layer_factory.hpp:77] Creating layer ip2
I0628 08:00:26.670188 28673 net.cpp:84] Creating Layer ip2
I0628 08:00:26.670192 28673 net.cpp:406] ip2 <- ip1
I0628 08:00:26.670195 28673 net.cpp:380] ip2 -> ip2
I0628 08:00:26.670248 28673 net.cpp:122] Setting up ip2
I0628 08:00:26.670253 28673 net.cpp:129] Top shape: 96 2 (192)
I0628 08:00:26.670255 28673 net.cpp:137] Memory required for data: 21284736
I0628 08:00:26.670259 28673 layer_factory.hpp:77] Creating layer ip2_ip2_0_split
I0628 08:00:26.670264 28673 net.cpp:84] Creating Layer ip2_ip2_0_split
I0628 08:00:26.670267 28673 net.cpp:406] ip2_ip2_0_split <- ip2
I0628 08:00:26.670290 28673 net.cpp:380] ip2_ip2_0_split -> ip2_ip2_0_split_0
I0628 08:00:26.670295 28673 net.cpp:380] ip2_ip2_0_split -> ip2_ip2_0_split_1
I0628 08:00:26.670315 28673 net.cpp:122] Setting up ip2_ip2_0_split
I0628 08:00:26.670320 28673 net.cpp:129] Top shape: 96 2 (192)
I0628 08:00:26.670323 28673 net.cpp:129] Top shape: 96 2 (192)
I0628 08:00:26.670326 28673 net.cpp:137] Memory required for data: 21286272
I0628 08:00:26.670329 28673 layer_factory.hpp:77] Creating layer loss
I0628 08:00:26.670337 28673 net.cpp:84] Creating Layer loss
I0628 08:00:26.670342 28673 net.cpp:406] loss <- ip2_ip2_0_split_0
I0628 08:00:26.670359 28673 net.cpp:406] loss <- label_data_1_split_0
I0628 08:00:26.670363 28673 net.cpp:380] loss -> loss
…
I0628 08:00:26.670861 28673 net.cpp:294] The NetState phase (1) differed from the phase (0) specified by a rule in layer data
I0628 08:00:26.670871 28673 net.cpp:51] Initializing net from parameters: 
name: "simpleconv3"
state {
  phase: TEST
}
layer {
  name: "data"
  type: "ImageData"
  top: "data"
  top: "label"
  include {
    phase: TEST
  }
  transform_param {
    mirror: false
    crop_size: 48
    mean_value: 104.008
    mean_value: 116.669
    mean_value: 122.675
  }
  image_data_param {
    source: "val_shuffle.txt"
    batch_size: 16
    shuffle: false
  }
}
layer {
  name: "conv1"
  type: "Convolution"
  bottom: "data"
  top: "conv1"
  param {
    lr_mult: 1
    decay_mult: 1
  }
  param {
    lr_mult: 2
    decay_mult: 0
  }
  convolution_param {
    num_output: 12
    pad: 1
    kernel_size: 3
    stride: 2
    weight_filler {
      type: "xavier"
      std: 0.01
    }
    bias_filler {
      type: "constant"
      value: 0.2
    }
  }
}
layer {
  name: "conv1/bn"
  type: "BatchNorm"
  bottom: "conv1"
  top: "conv1"
  param {
    lr_mult: 0
    decay_mult: 0
  }
  param {
    lr_mult: 0
    decay_mult: 0
  }
  param {
    lr_mult: 0
    decay_mult: 0
  }
}
layer {
  name: "conv1/scale"
  type: "Scale"
  bottom: "conv1"
  top: "conv1"
  param {
    lr_mult: 1
    decay_mult: 0
  }
  param {
    lr_mult: 1
    decay_mult: 0
  }
  scale_param {
    filler {
      value: 1
    }
    bias_term: true
    bias_filler {
      value: 0
    }
  }
}
layer {
  name: "relu1"
  type: "ReLU"
  bottom: "conv1"
  top: "conv1"
}
layer {
  name: "conv2"
  type: "Convolution"
  bottom: "conv1"
  top: "conv2"
  param {
    lr_mult: 1
    decay_mult: 1
  }
  param {
    lr_mult: 2
    decay_mult: 0
  }
  convolution_param {
    num_output: 24
    pad: 1
    kernel_size: 3
    stride: 2
    weight_filler {
      type: "xavier"
      std: 0.1
    }
    bias_filler {
      type: "constant"
      value: 0.2
    }
  }
}
layer {
  name: "conv2/bn"
  type: "BatchNorm"
  bottom: "conv2"
  top: "conv2"
  param {
    lr_mult: 0
    decay_mult: 0
  }
  param {
    lr_mult: 0
    decay_mult: 0
  }
  param {
    lr_mult: 0
    decay_mult: 0
  }
}
layer {
  name: "conv2/scale"
  type: "Scale"
  bottom: "conv2"
  top: "conv2"
  param {
    lr_mult: 1
    decay_mult: 0
  }
  param {
    lr_mult: 1
    decay_mult: 0
  }
  scale_param {
    filler {
      value: 1
    }
    bias_term: true
    bias_filler {
      value: 0
    }
  }
}
layer {
  name: "relu2"
  type: "ReLU"
  bottom: "conv2"
  top: "conv2"
}
layer {
  name: "conv3"
  type: "Convolution"
  bottom: "conv2"
  top: "conv3"
  param {
    lr_mult: 1
    decay_mult: 1
  }
  param {
    lr_mult: 2
    decay_mult: 0
  }
  convolution_param {
    num_output: 48
    pad: 1
    kernel_size: 3
    stride: 2
    weight_filler {
      type: "xavier"
      std: 0.1
    }
    bias_filler {
      type: "constant"
      value: 0.2
    }
  }
}
layer {
  name: "conv3/bn"
  type: "BatchNorm"
  bottom: "conv3"
  top: "conv3"
  param {
    lr_mult: 0
    decay_mult: 0
  }
  param {
    lr_mult: 0
    decay_mult: 0
  }
  param {
    lr_mult: 0
    decay_mult: 0
  }
}
layer {
  name: "conv3/scale"
  type: "Scale"
  bottom: "conv3"
  top: "conv3"
  param {
    lr_mult: 1
    decay_mult: 0
  }
  param {
    lr_mult: 1
    decay_mult: 0
  }
  scale_param {
    filler {
      value: 1
    }
    bias_term: true
    bias_filler {
      value: 0
    }
  }
}
layer {
  name: "relu3"
  type: "ReLU"
  bottom: "conv3"
  top: "conv3"
}
layer {
  name: "ip1"
  type: "InnerProduct"
  bottom: "conv3"
  top: "ip1"
  param {
    lr_mult: 1
    decay_mult: 1
  }
  param {
    lr_mult: 2
    decay_mult: 0
  }
  inner_product_param {
    num_output: 128
    weight_filler {
      type: "xavier"
    }
    bias_filler {
      type: "constant"
      value: 0
    }
  }
}
layer {
  name: "ip2"
  type: "InnerProduct"
  bottom: "ip1"
  top: "ip2"
  param {
    lr_mult: 1
    decay_mult: 1
  }
  param {
    lr_mult: 2
    decay_mult: 1
  }
  inner_product_param {
    num_output: 2
    weight_filler {
      type: "xavier"
    }
    bias_filler {
      type: "constant"
      value: 0
    }
  }
}
layer {
  name: "loss"
  type: "SoftmaxWithLoss"
  bottom: "ip2"
  bottom: "label"
  top: "loss"
}
layer {
  name: "acc"
  type: "Accuracy"
  bottom: "ip2"
  bottom: "label"
  top: "acc"
}
I0628 08:00:26.671062 28673 layer_factory.hpp:77] Creating layer data
I0628 08:00:26.671072 28673 net.cpp:84] Creating Layer data
I0628 08:00:26.671075 28673 net.cpp:380] data -> data
I0628 08:00:26.671082 28673 net.cpp:380] data -> label
I0628 08:00:26.671087 28673 image_data_layer.cpp:43] Opening file val_shuffle.txt
I0628 08:00:26.671089 28673 io.cpp:296] Opening file val_shuffle.txt
I0628 08:00:26.671295 28673 io.cpp:321] Read 300 images with 1 labels
I0628 08:00:26.671305 28673 image_data_layer.cpp:71] A total of 300 images.
I0628 08:00:26.671449 28673 image_data_layer.cpp:98] output data size: 16,3,48,48
I0628 08:00:26.674962 28673 net.cpp:122] Setting up data
I0628 08:00:26.674975 28673 net.cpp:129] Top shape: 16 3 48 48 (110592)
I0628 08:00:26.674981 28673 net.cpp:129] Top shape: 16 1 1 1 (16)
I0628 08:00:26.674984 28673 net.cpp:137] Memory required for data: 442432
I0628 08:00:26.674989 28673 layer_factory.hpp:77] Creating layer label_data_1_split
I0628 08:00:26.674998 28673 net.cpp:84] Creating Layer label_data_1_split
I0628 08:00:26.675002 28673 net.cpp:406] label_data_1_split <- label
I0628 08:00:26.675007 28673 net.cpp:380] label_data_1_split -> label_data_1_split_0
I0628 08:00:26.675014 28673 net.cpp:380] label_data_1_split -> label_data_1_split_1
I0628 08:00:26.675046 28673 net.cpp:122] Setting up label_data_1_split
I0628 08:00:26.675050 28673 net.cpp:129] Top shape: 16 1 1 1 (16)
I0628 08:00:26.675055 28673 net.cpp:129] Top shape: 16 1 1 1 (16)
I0628 08:00:26.675057 28673 net.cpp:137] Memory required for data: 442560
I0628 08:00:26.675060 28673 layer_factory.hpp:77] Creating layer conv1
I0628 08:00:26.675068 28673 net.cpp:84] Creating Layer conv1
I0628 08:00:26.675071 28673 net.cpp:406] conv1 <- data
I0628 08:00:26.675076 28673 net.cpp:380] conv1 -> conv1
I0628 08:00:26.675287 28673 net.cpp:122] Setting up conv1
I0628 08:00:26.675292 28673 net.cpp:129] Top shape: 16 12 24 24 (110592)
I0628 08:00:26.675295 28673 net.cpp:137] Memory required for data: 884928
I0628 08:00:26.675302 28673 layer_factory.hpp:77] Creating layer conv1/bn
I0628 08:00:26.675308 28673 net.cpp:84] Creating Layer conv1/bn
I0628 08:00:26.675312 28673 net.cpp:406] conv1/bn <- conv1
I0628 08:00:26.675315 28673 net.cpp:367] conv1/bn -> conv1 (in-place)
I0628 08:00:26.675853 28673 net.cpp:122] Setting up conv1/bn
I0628 08:00:26.675858 28673 net.cpp:129] Top shape: 16 12 24 24 (110592)
I0628 08:00:26.675861 28673 net.cpp:137] Memory required for data: 1327296
I0628 08:00:26.675868 28673 layer_factory.hpp:77] Creating layer conv1/scale
I0628 08:00:26.675873 28673 net.cpp:84] Creating Layer conv1/scale
I0628 08:00:26.675874 28673 net.cpp:406] conv1/scale <- conv1
I0628 08:00:26.675879 28673 net.cpp:367] conv1/scale -> conv1 (in-place)
I0628 08:00:26.684908 28673 layer_factory.hpp:77] Creating layer conv1/scale
I0628 08:00:26.685087 28673 net.cpp:122] Setting up conv1/scale
I0628 08:00:26.685094 28673 net.cpp:129] Top shape: 16 12 24 24 (110592)
I0628 08:00:26.685115 28673 net.cpp:137] Memory required for data: 1769664
I0628 08:00:26.685122 28673 layer_factory.hpp:77] Creating layer relu1
I0628 08:00:26.685147 28673 net.cpp:84] Creating Layer relu1
I0628 08:00:26.685149 28673 net.cpp:406] relu1 <- conv1
I0628 08:00:26.685154 28673 net.cpp:367] relu1 -> conv1 (in-place)
I0628 08:00:26.685180 28673 net.cpp:122] Setting up relu1
I0628 08:00:26.685185 28673 net.cpp:129] Top shape: 16 12 24 24 (110592)
I0628 08:00:26.685189 28673 net.cpp:137] Memory required for data: 2212032
I0628 08:00:26.685191 28673 layer_factory.hpp:77] Creating layer conv2
I0628 08:00:26.685199 28673 net.cpp:84] Creating Layer conv2
I0628 08:00:26.685204 28673 net.cpp:406] conv2 <- conv1
I0628 08:00:26.685209 28673 net.cpp:380] conv2 -> conv2
I0628 08:00:26.685415 28673 net.cpp:122] Setting up conv2
I0628 08:00:26.685418 28673 net.cpp:129] Top shape: 16 24 12 12 (55296)
I0628 08:00:26.685441 28673 net.cpp:137] Memory required for data: 2433216
I0628 08:00:26.685446 28673 layer_factory.hpp:77] Creating layer conv2/bn
I0628 08:00:26.685451 28673 net.cpp:84] Creating Layer conv2/bn
I0628 08:00:26.685473 28673 net.cpp:406] conv2/bn <- conv2
I0628 08:00:26.685477 28673 net.cpp:367] conv2/bn -> conv2 (in-place)
I0628 08:00:26.685613 28673 net.cpp:122] Setting up conv2/bn
I0628 08:00:26.685617 28673 net.cpp:129] Top shape: 16 24 12 12 (55296)
I0628 08:00:26.685640 28673 net.cpp:137] Memory required for data: 2654400
I0628 08:00:26.685644 28673 layer_factory.hpp:77] Creating layer conv2/scale
I0628 08:00:26.685652 28673 net.cpp:84] Creating Layer conv2/scale
I0628 08:00:26.685654 28673 net.cpp:406] conv2/scale <- conv2
I0628 08:00:26.685657 28673 net.cpp:367] conv2/scale -> conv2 (in-place)
I0628 08:00:26.685678 28673 layer_factory.hpp:77] Creating layer conv2/scale
I0628 08:00:26.685792 28673 net.cpp:122] Setting up conv2/scale
I0628 08:00:26.685797 28673 net.cpp:129] Top shape: 16 24 12 12 (55296)
I0628 08:00:26.685819 28673 net.cpp:137] Memory required for data: 2875584
I0628 08:00:26.685823 28673 layer_factory.hpp:77] Creating layer relu2
I0628 08:00:26.685828 28673 net.cpp:84] Creating Layer relu2
I0628 08:00:26.685832 28673 net.cpp:406] relu2 <- conv2
I0628 08:00:26.685834 28673 net.cpp:367] relu2 -> conv2 (in-place)
I0628 08:00:26.685837 28673 net.cpp:122] Setting up relu2
I0628 08:00:26.685840 28673 net.cpp:129] Top shape: 16 24 12 12 (55296)
I0628 08:00:26.685843 28673 net.cpp:137] Memory required for data: 3096768
I0628 08:00:26.685845 28673 layer_factory.hpp:77] Creating layer conv3
I0628 08:00:26.685850 28673 net.cpp:84] Creating Layer conv3
I0628 08:00:26.685853 28673 net.cpp:406] conv3 <- conv2
I0628 08:00:26.685856 28673 net.cpp:380] conv3 -> conv3
I0628 08:00:26.686084 28673 net.cpp:122] Setting up conv3
I0628 08:00:26.686089 28673 net.cpp:129] Top shape: 16 48 6 6 (27648)
I0628 08:00:26.686111 28673 net.cpp:137] Memory required for data: 3207360
I0628 08:00:26.686115 28673 layer_factory.hpp:77] Creating layer conv3/bn
I0628 08:00:26.686120 28673 net.cpp:84] Creating Layer conv3/bn
I0628 08:00:26.686123 28673 net.cpp:406] conv3/bn <- conv3
I0628 08:00:26.686126 28673 net.cpp:367] conv3/bn -> conv3 (in-place)
I0628 08:00:26.686269 28673 net.cpp:122] Setting up conv3/bn
I0628 08:00:26.686275 28673 net.cpp:129] Top shape: 16 48 6 6 (27648)
I0628 08:00:26.686300 28673 net.cpp:137] Memory required for data: 3317952
I0628 08:00:26.686308 28673 layer_factory.hpp:77] Creating layer conv3/scale
I0628 08:00:26.686314 28673 net.cpp:84] Creating Layer conv3/scale
I0628 08:00:26.686317 28673 net.cpp:406] conv3/scale <- conv3
I0628 08:00:26.686321 28673 net.cpp:367] conv3/scale -> conv3 (in-place)
I0628 08:00:26.686373 28673 layer_factory.hpp:77] Creating layer conv3/scale
I0628 08:00:26.686477 28673 net.cpp:122] Setting up conv3/scale
I0628 08:00:26.686483 28673 net.cpp:129] Top shape: 16 48 6 6 (27648)
I0628 08:00:26.686486 28673 net.cpp:137] Memory required for data: 3428544
I0628 08:00:26.686517 28673 layer_factory.hpp:77] Creating layer relu3
I0628 08:00:26.686523 28673 net.cpp:84] Creating Layer relu3
I0628 08:00:26.686527 28673 net.cpp:406] relu3 <- conv3
I0628 08:00:26.686530 28673 net.cpp:367] relu3 -> conv3 (in-place)
I0628 08:00:26.686534 28673 net.cpp:122] Setting up relu3
I0628 08:00:26.686537 28673 net.cpp:129] Top shape: 16 48 6 6 (27648)
I0628 08:00:26.686542 28673 net.cpp:137] Memory required for data: 3539136
I0628 08:00:26.686545 28673 layer_factory.hpp:77] Creating layer ip1
I0628 08:00:26.686553 28673 net.cpp:84] Creating Layer ip1
I0628 08:00:26.686556 28673 net.cpp:406] ip1 <- conv3
I0628 08:00:26.686563 28673 net.cpp:380] ip1 -> ip1
I0628 08:00:26.687599 28673 net.cpp:122] Setting up ip1
I0628 08:00:26.687613 28673 net.cpp:129] Top shape: 16 128 (2048)
I0628 08:00:26.687618 28673 net.cpp:137] Memory required for data: 3547328
I0628 08:00:26.687623 28673 layer_factory.hpp:77] Creating layer ip2
I0628 08:00:26.687649 28673 net.cpp:84] Creating Layer ip2
I0628 08:00:26.687654 28673 net.cpp:406] ip2 <- ip1
I0628 08:00:26.687659 28673 net.cpp:380] ip2 -> ip2
I0628 08:00:26.687770 28673 net.cpp:122] Setting up ip2
I0628 08:00:26.687775 28673 net.cpp:129] Top shape: 16 2 (32)
I0628 08:00:26.687778 28673 net.cpp:137] Memory required for data: 3547456
I0628 08:00:26.687800 28673 layer_factory.hpp:77] Creating layer ip2_ip2_0_split
I0628 08:00:26.687805 28673 net.cpp:84] Creating Layer ip2_ip2_0_split
I0628 08:00:26.687808 28673 net.cpp:406] ip2_ip2_0_split <- ip2
I0628 08:00:26.687813 28673 net.cpp:380] ip2_ip2_0_split -> ip2_ip2_0_split_0
I0628 08:00:26.687834 28673 net.cpp:380] ip2_ip2_0_split -> ip2_ip2_0_split_1
I0628 08:00:26.687853 28673 net.cpp:122] Setting up ip2_ip2_0_split
I0628 08:00:26.687857 28673 net.cpp:129] Top shape: 16 2 (32)
I0628 08:00:26.687860 28673 net.cpp:129] Top shape: 16 2 (32)
I0628 08:00:26.687863 28673 net.cpp:137] Memory required for data: 3547712
I0628 08:00:26.687866 28673 layer_factory.hpp:77] Creating layer loss
I0628 08:00:26.687889 28673 net.cpp:84] Creating Layer loss
I0628 08:00:26.687892 28673 net.cpp:406] loss <- ip2_ip2_0_split_0
I0628 08:00:26.687896 28673 net.cpp:406] loss <- label_data_1_split_0
I0628 08:00:26.687899 28673 net.cpp:380] loss -> loss
…
